hand_detect/hand_dataset/B_1721720254.npy (npy, 429256 bytes, 1 tensors)

array f8 [679, 79]
00000000: 0000 0040 a4aa d33f 0000 00c0 19cf e83f
00000010: 0000 0080 51e0 933e 0000 0000 6761 d73f
00000020: 0000 0040 3f17 e83f 0000 00c0 8f8e a0bf
00000030: 0000 0000 96f6 d93f 0000 0060 847d e53f
00000040: 0000 0000 dc06 a6bf 0000 0080 6e94 d83f
00000050: 0000 00c0 230a e33f 0000 0080 43d2 a9bf
00000060: 0000 00a0 3391 d53f 0000 0060 42ec e13f
00000070: 0000 0080 5ccf adbf 0000 00a0 2e16 da3f
00000080: 0000 0060 9ec5 e13f 0000 00e0 74d6 99bf
00000090: 0000 0020 da62 da3f 0000 00e0 6f4b dd3f
000000a0: 0000 00e0 0632 a6bf 0000 0000 2b30 da3f
000000b0: 0000 0080 c729 d93f 0000 0000 2c0d afbf
000000c0: 0000 0040 2bca d93f 0000 00c0 4177 d53f
000000d0: 0000 0020 e021 b3bf 0000 0060 1180 d73f
000000e0: 0000 0020 ee45 e13f 0000 0020 7eed 99bf
000000f0: 0000 00a0 d4de d73f 0000 0080 cdc5 db3f
00000100: 0000 0040 5a31 a5bf 0000 0080 b3c4 d73f
00000110: 0000 00c0 ac14 d73f 0000 00e0 6832 aebf
00000120: 0000 00e0 5563 d73f 0000 0000 bf0d d33f
00000130: 0000 0020 b485 b2bf 0000 00a0 500d d53f
00000140: 0000 0000 4290 e13f 0000 0080 8fac 9dbf
00000150: 0000 00a0 7436 d53f 0000 00c0 e4dc dc3f
00000160: 0000 0040 a088 a7bf 0000 0040 ee45 d53f
00000170: 0000 0080 c3d0 d83f 0000 00a0 0901 afbf
00000180: 0000 0000 8c0e d53f 0000 0080 5346 d53f
00000190: 0000 0040 4617 b2bf 0000 0020 d65f d23f
000001a0: 0000 0020 cd57 e23f 0000 00a0 c759 a2bf
000001b0: 0000 0000 92bb d23f 0000 00e0 95de df3f
000001c0: 0000 00e0 5d44 abbf 0000 0000 6606 d33f
000001d0: 0000 00e0 e1c7 dc3f 0000 00a0 2da3 afbf
000001e0: 0000 00a0 ce21 d33f 0000 00a0 61ee d93f
000001f0: 0000 0060 e33c b1bf 4519 1bc9 559e 4640
00000200: 591e c654 70f9 4440 3483 5b54 90c0 4240
00000210: aa35 aaec 6904 3640 4872 19ce 04ec 1b40
00000220: 799a ac3c c48b 0c40 3810 2606 d7bd 2640
00000230: 2b61 1d78 94f2 1940 ef5c cbaf 8451 1140
00000240: 615b 5d22 3edd 1240 7aca 65ca 9ca4 0940
00000250: d3a3 9b08 2013 1440 6aa9 e338 3d69 2440
00000260: b28f b147 2eb3 0940 94fb b0a5 0650 1140
00000270: 0000 0000 0000 f03f 0000 0040 bc8c d33f
00000280: 0000 0040 4dff e83f 0000 0060 644c 933e
00000290: 0000 00c0 c76a d73f 0000 00c0 1708 e83f
000002a0: 0000 0020 41f5 9dbf 0000 0080 301c da3f
000002b0: 0000 00a0 9065 e53f 0000 00c0 a8d9 a3bf
000002c0: 0000 0000 17c1 d83f 0000 00a0 21e2 e23f
000002d0: 0000 0040 ba7e a7bf 0000 00e0 bbb1 d53f
000002e0: 0000 0060 21d5 e13f 0000 00c0 4467 abbf
000002f0: 0000 00c0 f80d da3f 0000 0060 29bc e13f
00000300: 0000 00e0 56aa 96bf 0000 0080 146b da3f
00000310: 0000 0040 c840 dd3f 0000 0020 b074 a4bf
00000320: 0000 0020 fd27 da3f 0000 0000 f91a d93f
00000330: 0000 0000 1d41 adbf 0000 00e0 c1bc d93f
00000340: 0000 0000 794d d53f 0000 0020 8f53 b2bf
00000350: 0000 0040 3f7e d73f 0000 0060 d236 e13f
00000360: 0000 0080 6206 99bf 0000 0040 c3d3 d73f
00000370: 0000 0020 d789 db3f 0000 0000 874f a4bf
00000380: 0000 00a0 ebcd d73f 0000 00c0 beee d63f
00000390: 0000 0020 a0bb adbf 0000 0020 858c d73f
000003a0: 0000 00c0 adf2 d23f 0000 0060 0cb6 b2bf
000003b0: 0000 00e0 7c0e d53f 0000 00e0 e386 e13f
000003c0: 0000 00c0 24e1 9ebf 0000 0040 d91c d53f
000003d0: 0000 00c0 6de7 dc3f 0000 00c0 e3ff a7bf
000003e0: 0000 0000 aa3c d53f 0000 0040 c4e8 d83f
000003f0: 0000 00c0 3727 b0bf 0000 0060 660f d53f
00000400: 0000 0040 1572 d53f 0000 0080 813e b3bf
00000410: 0000 00c0 b168 d23f 0000 0040 b35f e23f
00000420: 0000 00a0 15f2 a3bf 0000 00a0 aec0 d23f
00000430: 0000 0020 c501 e03f 0000 0060 dd73 acbf
00000440: 0000 00e0 af26 d33f 0000 00e0 8fd5 dc3f
00000450: 0000 00c0 e1b5 b0bf 0000 0080 4253 d33f
00000460: 0000 0000 13f3 d93f 0000 0020 d9a0 b2bf
00000470: 559c dc1d dc93 4340 03e7 28f4 92fc 4440
00000480: e760 164d b71f 4440 c4a7 bda7 633f 3540
00000490: 7443 c841 f63c 2040 b6d9 8736 42f0 0640
000004a0: 31d7 ba55 7140 2740 8084 c835 91e9 1b40
000004b0: 8532 d65c 4010 0b40 e420 a0e4 a213 1740
000004c0: 685a 65d5 2d69 1340 bad5 50b0 cff7 1340
000004d0: fb53 9516 2339 2240 fbaf d0a0 0feb 0a40
000004e0: 626d ec58 4893 0f40 0000 0000 0000 f03f
000004f0: 0000 0020 9382 d33f 0000 00c0 f9f8 e83f
00000500: 0000 00c0 f540 923e 0000 00a0 0554 d73f
00000510: 0000 0080 1301 e83f 0000 0060 2852 9ebf
00000520: 0000 0020 c70c da3f 0000 00e0 9061 e53f
00000530: 0000 0060 3c14 a4bf 0000 0000 c3cf d83f
00000540: 0000 00a0 41d7 e23f 0000 00e0 99c9 a7bf
00000550: 0000 0080 c7d0 d53f 0000 00c0 0cbe e13f
00000560: 0000 0020 99bc abbf 0000 00e0 6705 da3f
00000570: 0000 0060 6889 e13f 0000 0060 79d9 94bf
00000580: 0000 0080 cd65 da3f 0000 00c0 07f1 dc3f
00000590: 0000 00e0 133b a3bf 0000 0080 bd26 da3f
000005a0: 0000 0080 8cee d83f 0000 00a0 07fc abbf
000005b0: 0000 0060 2ac7 d93f 0000 0040 7a3d d53f
000005c0: 0000 00a0 33b1 b1bf 0000 0000 a07b d73f
000005d0: 0000 0040 1c0f e13f 0000 0000 01dc 96bf
000005e0: 0000 00c0 cdd1 d73f 0000 0020 4353 db3f
000005f0: 0000 0060 23de a2bf 0000 0000 7dc8 d73f
00000600: 0000 0080 b8cb d63f 0000 00c0 473b acbf
00000610: 0000 0080 f889 d73f 0000 00a0 8ada d23f
00000620: 0000 0060 defe b1bf 0000 00e0 e60f d53f
00000630: 0000 0000 c96a e13f 0000 0080 9693 9cbf
00000640: 0000 0020 a023 d53f 0000 00e0 1cbe dc3f
00000650: 0000 00a0 dc92 a6bf 0000 0040 5541 d53f
00000660: 0000 0080 c3df d83f 0000 0000 bcb0 aebf
00000670: 0000 0060 331a d53f 0000 0000 1182 d53f
00000680: 0000 0020 1a69 b2bf 0000 0080 566f d23f
00000690: 0000 0080 2750 e23f 0000 0020 37c9 a2bf
000006a0: 0000 0080 79cc d23f 0000 00a0 bce6 df3f
000006b0: 0000 0020 f819 abbf 0000 0080 0733 d33f
000006c0: 0000 0000 2ac9 dc3f 0000 00c0 17f6 afbf
000006d0: 0000 0060 7764 d33f 0000 0000 c3f0 d93f
000006e0: 0000 0000 90e2 b1bf cb27 9398 4157 4340
000006f0: e924 490b f776 4440 a7f2 6770 92ef 4340
00000700: 28fc 83c0 7ab7 3440 2e41 5d4f f00f 2140
00000710: 1009 c613 8e19 0440 9bec 8994 cf0b 2740
00000720: 1378 ba16 d3c5 1d40 6aa5 03bd 148f 0840
00000730: c34a 3ffd 8781 1740 51e3 df01 0a89 1440
00000740: e938 118f 1961 1240 b5e6 a558 9155 2240
00000750: 7451 b156 7797 0940 d215 1e07 178d 0d40
00000760: 0000 0000 0000 f03f 0000 0040 efea d23f
00000770: 0000 0080 80ec e83f 0000 0020 d50e 923e
00000780: 0000 00c0 bac1 d63f 0000 00c0 9ff0 e73f
00000790: 0000 0020 a66b a0bf 0000 00a0 a2a8 d93f
000007a0: 0000 0080 ff59 e53f 0000 0000 5ae9 a5bf
000007b0: 0000 0000 265c d83f 0000 0040 85c2 e23f
000007c0: 0000 0060 5008 aabf 0000 00c0 0957 d53f
000007d0: 0000 0080 779f e13f 0000 0060 354b aebf
000007e0: 0000 0000 8188 d93f 0000 0000 9182 e13f
000007f0: 0000 00e0 5813 96bf 0000 0000 ec05 da3f
0.30729013681411743 0.7752808332443237 2.961791096822708e-07 0.36531996726989746 0.7528377771377563 -0.03233765810728073 0.40567541122436523 0.6715719103813171
-0.04302108287811279 0.3840595483779907 0.5949877500534058 -0.05043230950832367 0.3369874060153961 0.5600902438163757 -0.05822266638278961 0.4076038897037506
0.5553733706474304 -0.02523214928805828 0.41228345036506653 0.457729309797287 -0.043350424617528915 0.40918993949890137 0.39317500591278076 -0.06064736843109131
0.40296441316604614 0.3354038596153259 -0.07473564893007278 0.3671916425228119 0.5397863984107971 -0.0253200251609087 0.37297549843788147 0.43394792079925537
-0.04139215499162674 0.37138068675994873 0.3606368899345398 -0.05897834524512291 0.36543795466423035 0.2977139949798584 -0.07235265523195267 0.32893767952919006
0.5488595962524414 -0.028978578746318817 0.3314487040042877 0.4509822726249695 -0.04596424847841263 0.33239322900772095 0.38774192333221436 -0.06055479124188423
0.3290128707885742 0.332417368888855 -0.07066763937473297 0.2870993912220001 0.5732179284095764 -0.035841215401887894 0.29269838333129883 0.49796053767204285
-0.053255971521139145 0.29726552963256836 0.44969984889030457 -0.06179182603955269 0.29893842339515686 0.4051746428012848 -0.0673353299498558 45.236992967826644
41.94874057458646 37.50440458744416 22.017241279177746 6.9804870799094445 3.5682453861402874 11.37078112806931 6.486894490044771 4.329607722079557
4.716057335804039 3.205377179366505 5.018676886081226 10.205545213499779 3.212490615946046 4.328150357176941 1.0 0.30546480417251587
0.7811647653579712 2.875686675452016e-07 0.36589235067367554 0.7509878873825073 -0.029255883768200874 0.4079705476760864 0.6686480641365051 -0.038769982755184174
0.38678526878356934 0.5901039242744446 -0.04588872939348221 0.3389730155467987 0.557266891002655 -0.053522251546382904 0.4071027636528015 0.5542189478874207
-0.022134168073534966 0.4127856492996216 0.4570789933204651 -0.03995275869965553 0.4086907207965851 0.3922712802886963 -0.05713739991188049 0.4021458327770233
0.3328535556793213 -0.07158751040697098 0.3670805096626282 0.537942111492157 -0.024438418447971344 0.3722999691963196 0.4302881062030792 -0.03966924548149109
0.3719433844089508 0.3583218455314636 -0.05807209387421608 0.3679516613483429 0.2960619330406189 -0.0730903372168541 0.3290092647075653 0.5477160811424255
-0.0301557295024395 0.3298857808113098 0.4516252875328064 -0.04687415808439255 0.33182764053344727 0.3892069458961487 -0.06309841573238373 0.3290649354457855
0.3350880742073059 -0.07517251372337341 0.2876400351524353 0.5741821527481079 -0.038956332951784134 0.2930103838443756 0.5002160668373108 -0.055571477860212326
0.2992362678050995 0.45053479075431824 -0.06527529656887054 0.30195677280426025 0.40546107292175293 -0.07276684790849686 39.15515492698675 41.97323467251956
40.24778140633298 21.24761436825044 8.119066291519381 2.867313791294886 11.625864676530542 6.978092995036718 3.382935261999878 5.769176075242488
4.852713903723817 4.992003207143563 9.11159582684376 3.364775902145991 3.9469153353835944 1.0 0.3048446476459503 0.7803925275802612
2.720020688684599e-07 0.36450329422950745 0.750131368637085 -0.02961028181016445 0.4070298969745636 0.6681599020957947 -0.03921688720583916 0.3876807689666748
0.5887764096260071 -0.04645996913313866 0.34086787700653076 0.5544494390487671 -0.054173264652490616 0.4065799415111542 0.5480234026908875 -0.020360847935080528
0.41246354579925537 0.45221132040023804 -0.037560101598501205 0.40861451625823975 0.38955986499786377 -0.054657209664583206 0.40278109908103943 0.33187729120254517
-0.06911013275384903 0.36692047119140625 0.5330945253372192 -0.022323623299598694 0.37218040227890015 0.4269569218158722 -0.036851029843091965 0.3716118335723877
0.35618412494659424 -0.05513977259397507 0.36779606342315674 0.29458871483802795 -0.07029523700475693 0.3290955722332001 0.5442852973937988 -0.02790675312280655
0.33029940724372864 0.44910356402397156 -0.044089216738939285 0.3321126103401184 0.38865745067596436 -0.05994212627410889 0.32972416281700134 0.3360636234283447
-0.07191623002290726 0.2880455255508423 0.572284460067749 -0.03669140115380287 0.29373013973236084 0.49845805764198303 -0.0529325045645237 0.29998958110809326
0.44977807998657227 -0.06242441385984421 0.30300697684288025 0.4053199291229248 -0.06986331939697266 38.68168933091473 40.92941418715947 39.871656466251174
20.71671679708757 8.531130294927234 2.5124780220804794 11.523068086468177 7.44318805230252 3.069863773988506 5.876495320308723 5.133827237405812
4.5948240618001615 9.167124529124843 3.198958089147874 3.6938915782982145 1.0 0.29558926820755005 0.7788698673248291 2.690842677566252e-07
0.3555743098258972 0.748123049736023 -0.032071296125650406 0.4009176790714264 0.6672360897064209 -0.04279595613479614 0.38062429428100586 0.5862451791763306
-0.05084468051791191 0.33343738317489624 0.5507161617279053 -0.05916754528880119 0.3989565372467041 0.5471882820129395 -0.021558178588747978 0.40661144256591797
