hand_detect/hand_dataset/B_1721719540.npy (npy, 364792 bytes, 1 tensors)

array f8 [577, 79]
00000000: 0000 0000 0363 e03f 0000 00c0 49bb f03f
00000010: 0000 0060 b648 a03e 0000 00c0 c940 de3f
00000020: 0000 0000 931b f03f 0000 00e0 5299 9dbf
00000030: 0000 0040 2ef2 dc3f 0000 0000 828f ee3f
00000040: 0000 0060 902a acbf 0000 0060 663f dd3f
00000050: 0000 0040 e817 ed3f 0000 0080 44bc b3bf
00000060: 0000 0020 9f2a de3f 0000 00c0 04e1 eb3f
00000070: 0000 0020 f1ce b9bf 0000 0020 1a4f dd3f
00000080: 0000 00a0 7973 ed3f 0000 00c0 4556 b2bf
00000090: 0000 0000 194b dd3f 0000 00e0 bbb3 ea3f
000000a0: 0000 0040 4d84 bbbf 0000 00c0 6f9a dd3f
000000b0: 0000 0060 97c5 e83f 0000 00a0 d095 c0bf
000000c0: 0000 00a0 3202 de3f 0000 00a0 5a24 e73f
000000d0: 0000 00c0 ea7b c2bf 0000 00e0 6304 e03f
000000e0: 0000 0060 7363 ed3f 0000 0020 a14c b3bf
000000f0: 0000 00e0 6b2c e03f 0000 0060 be61 ea3f
00000100: 0000 00e0 c234 bcbf 0000 00e0 7d5e e03f
00000110: 0000 0000 432f e83f 0000 0000 aab8 c0bf
00000120: 0000 0080 b482 e03f 0000 0040 9349 e63f
00000130: 0000 0000 2391 c2bf 0000 0020 f95f e13f
00000140: 0000 0060 5bc1 ed3f 0000 0060 d369 b4bf
00000150: 0000 0060 bc90 e13f 0000 0040 c4e3 ea3f
00000160: 0000 0080 48b5 bcbf 0000 0060 a8bb e13f
00000170: 0000 00c0 91c6 e83f 0000 0020 c266 c0bf
00000180: 0000 0080 d8cc e13f 0000 00a0 98f8 e63f
00000190: 0000 00c0 79ac c1bf 0000 0000 46a8 e23f
000001a0: 0000 0000 185f ee3f 0000 00a0 09bf b5bf
000001b0: 0000 0040 effd e23f 0000 00c0 cd44 ec3f
000001c0: 0000 0040 ad1f bdbf 0000 00c0 e721 e33f
000001d0: 0000 0060 6893 ea3f 0000 0040 df2d c0bf
000001e0: 0000 0080 262c e33f 0000 00a0 130f e93f
000001f0: 0000 00e0 ed2c c1bf f44f 8c92 c55e 3540
00000200: 6561 48be ccbb 3840 8584 f530 16db 2b40
00000210: 141e 6b17 4d8b 3540 f9d3 6f37 e18b 1440
00000220: b6b9 548f 055c 1240 3dbf 0aa5 ce32 2940
00000230: 4a24 0b2a 4e0f 1140 a3f4 8996 9a04 0840
00000240: bee2 b25c b5f3 3040 427b d7a9 bd48 1940
00000250: 2b4c 2e9b 1022 1140 4891 d3f8 f170 3a40
00000260: ed77 eb68 70a6 2540 ff84 4843 469f 1440
00000270: 0000 0000 0000 f03f 0000 00e0 e10d e33f
00000280: 0000 00c0 6a69 ef3f 0000 0080 546e a63e
00000290: 0000 00e0 3c0f e13f 0000 0040 6891 ee3f
000002a0: 0000 00e0 7f7e 9cbf 0000 0040 6497 df3f
000002b0: 0000 00c0 5b25 ec3f 0000 0080 95b3 a7bf
000002c0: 0000 0020 6e91 e03f 0000 0000 feef e93f
000002d0: 0000 0060 0603 b0bf 0000 0020 3329 e23f
000002e0: 0000 00a0 3033 e93f 0000 00a0 4194 b4bf
000002f0: 0000 00c0 6741 e03f 0000 0080 6b7c e83f
00000300: 0000 00c0 be16 a5bf 0000 0000 073d e03f
00000310: 0000 0040 713b e53f 0000 0020 efb4 b1bf
00000320: 0000 0000 cf72 e03f 0000 00c0 830e e33f
00000330: 0000 00a0 4e7b b7bf 0000 0040 edb2 e03f
00000340: 0000 0000 d92a e13f 0000 00c0 45bf bbbf
00000350: 0000 0020 65b8 e13f 0000 0020 c01c e83f
00000360: 0000 00a0 a820 a8bf 0000 0060 5dcd e13f
00000370: 0000 00e0 fe75 e43f 0000 0060 7924 b2bf
00000380: 0000 00a0 7afc e13f 0000 0060 2cf1 e13f
00000390: 0000 0060 fd2d b7bf 0000 0080 bf2c e23f
000003a0: 0000 0040 bc8d df3f 0000 0040 c9c6 babf
000003b0: 0000 0000 d62c e33f 0000 0020 e983 e83f
000003c0: 0000 00e0 8a9e acbf 0000 0020 8f46 e33f
000003d0: 0000 0060 2307 e53f 0000 0020 3829 b4bf
000003e0: 0000 0060 605a e33f 0000 0060 b0bc e23f
000003f0: 0000 00e0 70aa b8bf 0000 0020 316b e33f
00000400: 0000 0000 4bd0 e03f 0000 0060 4aa3 bbbf
00000410: 0000 0000 ada2 e43f 0000 00a0 c77d e93f
00000420: 0000 00c0 8c2b b1bf 0000 00c0 a2c6 e43f
00000430: 0000 00a0 3fa9 e63f 0000 0000 b2c8 b6bf
00000440: 0000 0000 26b9 e43f 0000 0040 1bc7 e43f
00000450: 0000 0080 8686 b9bf 0000 00a0 1c9c e43f
00000460: 0000 00c0 8926 e33f 0000 00e0 db40 bbbf
00000470: 4e14 1586 c978 4340 39c3 7b9e 96d7 4640
00000480: 1493 6069 823e 4640 1961 8c32 61d4 3540
00000490: 1bb1 de9a 4c18 1940 0812 f416 9b4a 0a40
000004a0: beef ba0a 5acf 2640 0b38 634d 7ed9 0c40
000004b0: a456 ffa1 c982 0340 4cea 20ae 2a29 0640
000004c0: 308b 6793 5bb4 ff3f 9016 3b03 1a03 0740
000004d0: e21b 856c ae95 2940 7a6d 6753 7291 1640
000004e0: 5e15 2474 c710 0d40 0000 0000 0000 f03f
000004f0: 0000 0000 91d6 e33f 0000 00e0 0603 ee3f
00000500: 0000 00c0 22c9 a73e 0000 0060 d9c4 e13f
00000510: 0000 0000 b7c3 ec3f 0000 0040 78f9 95bf
00000520: 0000 0040 e476 e03f 0000 00c0 11d8 e93f
00000530: 0000 00a0 7c37 a1bf 0000 0020 3c22 e13f
00000540: 0000 0020 8e42 e73f 0000 0000 2535 a7bf
00000550: 0000 0020 61b6 e23f 0000 00e0 8965 e63f
00000560: 0000 0060 dc38 adbf 0000 0020 66cf e03f
00000570: 0000 00e0 160a e63f 0000 0060 305f 91bf
00000580: 0000 0020 f7c7 e03f 0000 00c0 12bf e23f
00000590: 0000 0020 b9e9 a2bf 0000 0040 9504 e13f
000005a0: 0000 00c0 7f9d e03f 0000 00e0 6e2f acbf
000005b0: 0000 0060 9554 e13f 0000 0000 a2aa dd3f
000005c0: 0000 0000 fe8b b1bf 0000 00e0 c639 e23f
000005d0: 0000 0040 37a4 e53f 0000 00c0 f278 97bf
000005e0: 0000 0040 524b e23f 0000 00c0 270b e23f
000005f0: 0000 0040 3e42 a3bf 0000 00e0 927b e23f
00000600: 0000 00a0 d852 df3f 0000 00a0 0257 aabf
00000610: 0000 00a0 92ac e23f 0000 0020 b876 db3f
00000620: 0000 0060 8653 afbf 0000 0020 80ad e33f
00000630: 0000 00c0 bafb e53f 0000 0060 c099 a0bf
00000640: 0000 0080 ceb8 e33f 0000 00c0 638a e23f
00000650: 0000 0080 bce8 a7bf 0000 0040 eac7 e33f
00000660: 0000 0020 dd5c e03f 0000 0000 5b59 adbf
00000670: 0000 0040 07d3 e33f 0000 0040 9616 dd3f
00000680: 0000 0040 2a88 b0bf 0000 00e0 5723 e53f
00000690: 0000 0040 19f0 e63f 0000 0000 eae5 a6bf
000006a0: 0000 0080 bc27 e53f 0000 00e0 9220 e43f
000006b0: 0000 00c0 61e9 adbf 0000 0040 dc17 e53f
000006c0: 0000 0020 2945 e23f 0000 0020 26fc afbf
000006d0: 0000 0000 3efc e43f 0000 0040 cab0 e03f
000006e0: 0000 0020 507a b0bf 3d80 1ece fb9f 4140
000006f0: 4e4c e5bc e521 4340 551f deb3 d21b 4740
00000700: 52d2 faea b268 3540 2472 c932 5c63 1f40
00000710: 87c6 a5b2 8418 0f40 c1ba aa74 8d60 2840
00000720: d619 4fe4 dd3e 1240 2b98 50ec 5a47 fc3f
00000730: 6bbe 5218 65fb fd3f 638f f190 a6ab f83f
00000740: e71e 3f9e 74b7 f93f c3f6 b90b c761 2440
00000750: e6a0 fdee fa78 1540 0bac c9e7 ea72 0540
00000760: 0000 0000 0000 f03f 0000 0040 7e52 e43f
00000770: 0000 00c0 be59 ec3f 0000 0080 e1d9 a63e
00000780: 0000 0040 5420 e23f 0000 00c0 61c2 ea3f
00000790: 0000 00e0 e34b 97bf 0000 00e0 2fc5 e03f
000007a0: 0000 0060 c8ba e73f 0000 0040 a139 a2bf
000007b0: 0000 0060 b95c e13f 0000 0020 c412 e53f
000007c0: 0000 00e0 30de a8bf 0000 0080 67e2 e23f
000007d0: 0000 0080 c430 e43f 0000 0060 9f77 afbf
000007e0: 0000 0020 0c46 e13f 0000 0040 8f0e e43f
000007f0: 0000 00e0 a388 8bbf 0000 00e0 7547 e13f
0.5120863914489746 1.045724630355835 4.853019959227822e-07 0.47270435094833374 1.0067319869995117 -0.028905196115374565 0.45228153467178345 0.9550180435180664
-0.055012237280607224 0.4569946229457855 0.9091683626174927 -0.07709148526191711 0.47135141491889954 0.8712180852890015 -0.10081393271684647 0.45795300602912903
0.9203460812568665 -0.07162891328334808 0.45770859718322754 0.8344401717185974 -0.1074875146150589 0.4625510573387146 0.774120032787323 -0.12957198917865753
0.468884140253067 0.7231877446174622 -0.14440664649009705 0.5005359053611755 0.9183899760246277 -0.07538802176713943 0.5054225325584412 0.8244315981864929
-0.1101800724864006 0.5115346312522888 0.7557692527770996 -0.13063549995422363 0.5159552097320557 0.6964813470840454 -0.14505422115325928 0.5429654717445374
0.9298531413078308 -0.0797397717833519 0.5489179491996765 0.8403035402297974 -0.11214116215705872 0.5541574358940125 0.7742394208908081 -0.12813593447208405
0.556255578994751 0.7178462147712708 -0.1380760371685028 0.5830411911010742 0.9491081237792969 -0.08494625240564346 0.5934978723526001 0.8833988904953003
-0.11376459896564484 0.5978888273239136 0.8304941058158875 -0.1263999044895172 0.5991394519805908 0.7830904126167297 -0.1341836303472519 21.370202216392457
24.733592884703643 13.927903680773179 21.544145072604877 5.136601320457879 4.589864959284048 12.59923282390775 4.264946610384024 3.0022479782915794
16.951986116097707 6.321036008622118 4.283266472531106 26.441192199375365 10.825076369041165 5.155541468907585 1.0 0.5954446196556091
0.9816182851791382 6.684952040814096e-07 0.5331100821495056 0.9552499055862427 -0.027826307341456413 0.49361521005630493 0.8795603513717651 -0.04629199206829071
0.5177527070045471 0.8105459213256836 -0.06254615634679794 0.5675292611122131 0.7874987721443176 -0.08038721233606339 0.5079840421676636 0.7651879787445068
-0.04118915647268295 0.5074496269226074 0.6635061502456665 -0.06916708499193192 0.514014720916748 0.5955218076705933 -0.09172526746988297 0.5218416452407837
0.5364804267883301 -0.10838733613491058 0.5537591576576233 0.7535095810890198 -0.047124166041612625 0.5563189387321472 0.639403760433197 -0.07086905092000961
0.5620701909065247 0.5606901049613953 -0.09054549783468246 0.5679624080657959 0.49302583932876587 -0.10459573566913605 0.5992231369018555 0.7661023736000061
-0.05589708313345909 0.6023631691932678 0.6571213603019714 -0.07875395566225052 0.6047822833061218 0.5855333209037781 -0.09635072201490402 0.6068349480628967
0.5254263877868652 -0.10796036571264267 0.6448578834533691 0.7966039776802063 -0.06707076728343964 0.6492475271224976 0.7081602215766907 -0.08899986743927002
0.6476011276245117 0.649304986000061 -0.09970894455909729 0.6440566182136536 0.5984543561935425 -0.10645841807126999 38.943650017063746 45.684284029417945
44.48835484710267 21.8296081154559 6.273729724733381 3.2864286225542436 11.404983840293308 3.606197933760091 2.438861146549998 2.770100937251561
1.981532645987226 2.876514458885886 12.792346373795173 5.6420376808049415 3.633192927695446 1.0 0.6199421882629395 0.9378694891929626
7.088686970746494e-07 0.5552794337272644 0.8988909721374512 -0.021459463983774185 0.5145131349563599 0.8076256513595581 -0.033626455813646317 0.535429060459137
0.7268744111061096 -0.045327335596084595 0.5847631096839905 0.6998948454856873 -0.05707443878054619 0.5253172516822815 0.6887316107749939 -0.016964679583907127
0.524409830570221 0.5858243703842163 -0.03693941608071327 0.5318094491958618 0.5192259550094604 -0.055049385875463486 0.5415751338005066 0.46353960037231445
-0.06854236125946045 0.5695528388023376 0.6762958765029907 -0.022922318428754807 0.5716944932937622 0.5638617277145386 -0.037614770233631134 0.5775846838951111
0.4894315302371979 -0.05144508555531502 0.5835660099983215 0.4291210472583771 -0.0611841194331646 0.6149292588233948 0.6869786977767944 -0.03242303058505058
0.616309404373169 0.5793932676315308 -0.04669751226902008 0.6181536912918091 0.5113359093666077 -0.05732235312461853 0.619510293006897 0.45450359582901
-0.06457771360874176 0.6605643630027771 0.7168089151382446 -0.04472285509109497 0.6611006259918213 0.6289762854576111 -0.05842118710279465 0.6591626405715942
0.5709424614906311 -0.06247061863541603 0.6557912826538086 0.5215808153152466 -0.06436634808778763 35.249871983426125 38.26482354351229 46.21736763330288
21.40898007033895 7.84703139643219 3.8869718510475795 12.188579221573834 4.561393325164735 1.76742069540479 1.8738757085920053 1.5419068967684886
1.6072889501100975 10.190971723986314 5.368144735555893 2.681112109033625 1.0 0.6350699663162231 0.8859552145004272 6.810157628933666e-07
0.5664464235305786 0.8362282514572144 -0.022750435397028923 0.524070680141449 0.741550624370575 -0.035595931112766266 0.5425688624382019 0.6585407853126526
-0.0485701821744442 0.590137243270874 0.6309530735015869 -0.06145952269434929 0.5398007035255432 0.6267772912979126 -0.013444214127957821 0.5399731993675232
